----------------------------------------------------------------
        Layer (type)               Output Shape         Param #
================================================================
            Conv2d-1         [-1, 32, 152, 152]             864
       BatchNorm2d-2         [-1, 32, 152, 152]              64
              ReLU-3         [-1, 32, 152, 152]               0
      conv_bn_relu-4         [-1, 32, 152, 152]               0
            Conv2d-5         [-1, 16, 152, 152]             512
       BatchNorm2d-6         [-1, 16, 152, 152]              32
              ReLU-7         [-1, 16, 152, 152]               0
      conv_bn_relu-8         [-1, 16, 152, 152]               0
            Conv2d-9           [-1, 32, 76, 76]           4,608
      BatchNorm2d-10           [-1, 32, 76, 76]              64
             ReLU-11           [-1, 32, 76, 76]               0
     conv_bn_relu-12           [-1, 32, 76, 76]               0
        MaxPool2d-13           [-1, 32, 76, 76]               0
           Conv2d-14           [-1, 32, 76, 76]           2,048
      BatchNorm2d-15           [-1, 32, 76, 76]              64
             ReLU-16           [-1, 32, 76, 76]               0
     conv_bn_relu-17           [-1, 32, 76, 76]               0
        StemBlock-18           [-1, 32, 76, 76]               0
           Conv2d-19           [-1, 64, 76, 76]           2,048
      BatchNorm2d-20           [-1, 64, 76, 76]             128
             ReLU-21           [-1, 64, 76, 76]               0
     conv_bn_relu-22           [-1, 64, 76, 76]               0
           Conv2d-23           [-1, 16, 76, 76]           9,216
      BatchNorm2d-24           [-1, 16, 76, 76]              32
             ReLU-25           [-1, 16, 76, 76]               0
     conv_bn_relu-26           [-1, 16, 76, 76]               0
           Conv2d-27           [-1, 64, 76, 76]           2,048
      BatchNorm2d-28           [-1, 64, 76, 76]             128
             ReLU-29           [-1, 64, 76, 76]               0
     conv_bn_relu-30           [-1, 64, 76, 76]               0
           Conv2d-31           [-1, 16, 76, 76]           9,216
      BatchNorm2d-32           [-1, 16, 76, 76]              32
             ReLU-33           [-1, 16, 76, 76]               0
     conv_bn_relu-34           [-1, 16, 76, 76]               0
           Conv2d-35           [-1, 16, 76, 76]           2,304
      BatchNorm2d-36           [-1, 16, 76, 76]              32
             ReLU-37           [-1, 16, 76, 76]               0
     conv_bn_relu-38           [-1, 16, 76, 76]               0
      dense_layer-39           [-1, 64, 76, 76]               0
           Conv2d-40           [-1, 64, 76, 76]           4,096
      BatchNorm2d-41           [-1, 64, 76, 76]             128
             ReLU-42           [-1, 64, 76, 76]               0
     conv_bn_relu-43           [-1, 64, 76, 76]               0
           Conv2d-44           [-1, 16, 76, 76]           9,216
      BatchNorm2d-45           [-1, 16, 76, 76]              32
             ReLU-46           [-1, 16, 76, 76]               0
     conv_bn_relu-47           [-1, 16, 76, 76]               0
           Conv2d-48           [-1, 64, 76, 76]           4,096
      BatchNorm2d-49           [-1, 64, 76, 76]             128
             ReLU-50           [-1, 64, 76, 76]               0
     conv_bn_relu-51           [-1, 64, 76, 76]               0
           Conv2d-52           [-1, 16, 76, 76]           9,216
      BatchNorm2d-53           [-1, 16, 76, 76]              32
             ReLU-54           [-1, 16, 76, 76]               0
     conv_bn_relu-55           [-1, 16, 76, 76]               0
           Conv2d-56           [-1, 16, 76, 76]           2,304
      BatchNorm2d-57           [-1, 16, 76, 76]              32
             ReLU-58           [-1, 16, 76, 76]               0
     conv_bn_relu-59           [-1, 16, 76, 76]               0
      dense_layer-60           [-1, 96, 76, 76]               0
           Conv2d-61           [-1, 64, 76, 76]           6,144
      BatchNorm2d-62           [-1, 64, 76, 76]             128
             ReLU-63           [-1, 64, 76, 76]               0
     conv_bn_relu-64           [-1, 64, 76, 76]               0
           Conv2d-65           [-1, 16, 76, 76]           9,216
      BatchNorm2d-66           [-1, 16, 76, 76]              32
             ReLU-67           [-1, 16, 76, 76]               0
     conv_bn_relu-68           [-1, 16, 76, 76]               0
           Conv2d-69           [-1, 64, 76, 76]           6,144
      BatchNorm2d-70           [-1, 64, 76, 76]             128
             ReLU-71           [-1, 64, 76, 76]               0
     conv_bn_relu-72           [-1, 64, 76, 76]               0
           Conv2d-73           [-1, 16, 76, 76]           9,216
      BatchNorm2d-74           [-1, 16, 76, 76]              32
             ReLU-75           [-1, 16, 76, 76]               0
     conv_bn_relu-76           [-1, 16, 76, 76]               0
           Conv2d-77           [-1, 16, 76, 76]           2,304
      BatchNorm2d-78           [-1, 16, 76, 76]              32
             ReLU-79           [-1, 16, 76, 76]               0
     conv_bn_relu-80           [-1, 16, 76, 76]               0
      dense_layer-81          [-1, 128, 76, 76]               0
           Conv2d-82          [-1, 128, 76, 76]          16,384
      BatchNorm2d-83          [-1, 128, 76, 76]             256
             ReLU-84          [-1, 128, 76, 76]               0
     conv_bn_relu-85          [-1, 128, 76, 76]               0
        AvgPool2d-86          [-1, 128, 38, 38]               0
           Conv2d-87           [-1, 64, 38, 38]           8,192
      BatchNorm2d-88           [-1, 64, 38, 38]             128
             ReLU-89           [-1, 64, 38, 38]               0
     conv_bn_relu-90           [-1, 64, 38, 38]               0
           Conv2d-91           [-1, 16, 38, 38]           9,216
      BatchNorm2d-92           [-1, 16, 38, 38]              32
             ReLU-93           [-1, 16, 38, 38]               0
     conv_bn_relu-94           [-1, 16, 38, 38]               0
           Conv2d-95           [-1, 64, 38, 38]           8,192
      BatchNorm2d-96           [-1, 64, 38, 38]             128
             ReLU-97           [-1, 64, 38, 38]               0
     conv_bn_relu-98           [-1, 64, 38, 38]               0
           Conv2d-99           [-1, 16, 38, 38]           9,216
     BatchNorm2d-100           [-1, 16, 38, 38]              32
            ReLU-101           [-1, 16, 38, 38]               0
    conv_bn_relu-102           [-1, 16, 38, 38]               0
          Conv2d-103           [-1, 16, 38, 38]           2,304
     BatchNorm2d-104           [-1, 16, 38, 38]              32
            ReLU-105           [-1, 16, 38, 38]               0
    conv_bn_relu-106           [-1, 16, 38, 38]               0
     dense_layer-107          [-1, 160, 38, 38]               0
          Conv2d-108           [-1, 64, 38, 38]          10,240
     BatchNorm2d-109           [-1, 64, 38, 38]             128
            ReLU-110           [-1, 64, 38, 38]               0
    conv_bn_relu-111           [-1, 64, 38, 38]               0
          Conv2d-112           [-1, 16, 38, 38]           9,216
     BatchNorm2d-113           [-1, 16, 38, 38]              32
            ReLU-114           [-1, 16, 38, 38]               0
    conv_bn_relu-115           [-1, 16, 38, 38]               0
          Conv2d-116           [-1, 64, 38, 38]          10,240
     BatchNorm2d-117           [-1, 64, 38, 38]             128
            ReLU-118           [-1, 64, 38, 38]               0
    conv_bn_relu-119           [-1, 64, 38, 38]               0
          Conv2d-120           [-1, 16, 38, 38]           9,216
     BatchNorm2d-121           [-1, 16, 38, 38]              32
            ReLU-122           [-1, 16, 38, 38]               0
    conv_bn_relu-123           [-1, 16, 38, 38]               0
          Conv2d-124           [-1, 16, 38, 38]           2,304
     BatchNorm2d-125           [-1, 16, 38, 38]              32
            ReLU-126           [-1, 16, 38, 38]               0
    conv_bn_relu-127           [-1, 16, 38, 38]               0
     dense_layer-128          [-1, 192, 38, 38]               0
          Conv2d-129           [-1, 64, 38, 38]          12,288
     BatchNorm2d-130           [-1, 64, 38, 38]             128
            ReLU-131           [-1, 64, 38, 38]               0
    conv_bn_relu-132           [-1, 64, 38, 38]               0
          Conv2d-133           [-1, 16, 38, 38]           9,216
     BatchNorm2d-134           [-1, 16, 38, 38]              32
            ReLU-135           [-1, 16, 38, 38]               0
    conv_bn_relu-136           [-1, 16, 38, 38]               0
          Conv2d-137           [-1, 64, 38, 38]          12,288
     BatchNorm2d-138           [-1, 64, 38, 38]             128
            ReLU-139           [-1, 64, 38, 38]               0
    conv_bn_relu-140           [-1, 64, 38, 38]               0
          Conv2d-141           [-1, 16, 38, 38]           9,216
     BatchNorm2d-142           [-1, 16, 38, 38]              32
            ReLU-143           [-1, 16, 38, 38]               0
    conv_bn_relu-144           [-1, 16, 38, 38]               0
          Conv2d-145           [-1, 16, 38, 38]           2,304
     BatchNorm2d-146           [-1, 16, 38, 38]              32
            ReLU-147           [-1, 16, 38, 38]               0
    conv_bn_relu-148           [-1, 16, 38, 38]               0
     dense_layer-149          [-1, 224, 38, 38]               0
          Conv2d-150           [-1, 64, 38, 38]          14,336
     BatchNorm2d-151           [-1, 64, 38, 38]             128
            ReLU-152           [-1, 64, 38, 38]               0
    conv_bn_relu-153           [-1, 64, 38, 38]               0
          Conv2d-154           [-1, 16, 38, 38]           9,216
     BatchNorm2d-155           [-1, 16, 38, 38]              32
            ReLU-156           [-1, 16, 38, 38]               0
    conv_bn_relu-157           [-1, 16, 38, 38]               0
          Conv2d-158           [-1, 64, 38, 38]          14,336
     BatchNorm2d-159           [-1, 64, 38, 38]             128
            ReLU-160           [-1, 64, 38, 38]               0
    conv_bn_relu-161           [-1, 64, 38, 38]               0
          Conv2d-162           [-1, 16, 38, 38]           9,216
     BatchNorm2d-163           [-1, 16, 38, 38]              32
            ReLU-164           [-1, 16, 38, 38]               0
    conv_bn_relu-165           [-1, 16, 38, 38]               0
          Conv2d-166           [-1, 16, 38, 38]           2,304
     BatchNorm2d-167           [-1, 16, 38, 38]              32
            ReLU-168           [-1, 16, 38, 38]               0
    conv_bn_relu-169           [-1, 16, 38, 38]               0
     dense_layer-170          [-1, 256, 38, 38]               0
          Conv2d-171          [-1, 256, 38, 38]          65,536
     BatchNorm2d-172          [-1, 256, 38, 38]             512
            ReLU-173          [-1, 256, 38, 38]               0
    conv_bn_relu-174          [-1, 256, 38, 38]               0
       AvgPool2d-175          [-1, 256, 19, 19]               0
          Conv2d-176           [-1, 64, 19, 19]          16,384
     BatchNorm2d-177           [-1, 64, 19, 19]             128
            ReLU-178           [-1, 64, 19, 19]               0
    conv_bn_relu-179           [-1, 64, 19, 19]               0
          Conv2d-180           [-1, 16, 19, 19]           9,216
     BatchNorm2d-181           [-1, 16, 19, 19]              32
            ReLU-182           [-1, 16, 19, 19]               0
    conv_bn_relu-183           [-1, 16, 19, 19]               0
          Conv2d-184           [-1, 64, 19, 19]          16,384
     BatchNorm2d-185           [-1, 64, 19, 19]             128
            ReLU-186           [-1, 64, 19, 19]               0
    conv_bn_relu-187           [-1, 64, 19, 19]               0
          Conv2d-188           [-1, 16, 19, 19]           9,216
     BatchNorm2d-189           [-1, 16, 19, 19]              32
            ReLU-190           [-1, 16, 19, 19]               0
    conv_bn_relu-191           [-1, 16, 19, 19]               0
          Conv2d-192           [-1, 16, 19, 19]           2,304
     BatchNorm2d-193           [-1, 16, 19, 19]              32
            ReLU-194           [-1, 16, 19, 19]               0
    conv_bn_relu-195           [-1, 16, 19, 19]               0
     dense_layer-196          [-1, 288, 19, 19]               0
          Conv2d-197           [-1, 64, 19, 19]          18,432
     BatchNorm2d-198           [-1, 64, 19, 19]             128
            ReLU-199           [-1, 64, 19, 19]               0
    conv_bn_relu-200           [-1, 64, 19, 19]               0
          Conv2d-201           [-1, 16, 19, 19]           9,216
     BatchNorm2d-202           [-1, 16, 19, 19]              32
            ReLU-203           [-1, 16, 19, 19]               0
    conv_bn_relu-204           [-1, 16, 19, 19]               0
          Conv2d-205           [-1, 64, 19, 19]          18,432
     BatchNorm2d-206           [-1, 64, 19, 19]             128
            ReLU-207           [-1, 64, 19, 19]               0
    conv_bn_relu-208           [-1, 64, 19, 19]               0
          Conv2d-209           [-1, 16, 19, 19]           9,216
     BatchNorm2d-210           [-1, 16, 19, 19]              32
            ReLU-211           [-1, 16, 19, 19]               0
    conv_bn_relu-212           [-1, 16, 19, 19]               0
          Conv2d-213           [-1, 16, 19, 19]           2,304
     BatchNorm2d-214           [-1, 16, 19, 19]              32
            ReLU-215           [-1, 16, 19, 19]               0
    conv_bn_relu-216           [-1, 16, 19, 19]               0
     dense_layer-217          [-1, 320, 19, 19]               0
          Conv2d-218           [-1, 64, 19, 19]          20,480
     BatchNorm2d-219           [-1, 64, 19, 19]             128
            ReLU-220           [-1, 64, 19, 19]               0
    conv_bn_relu-221           [-1, 64, 19, 19]               0
          Conv2d-222           [-1, 16, 19, 19]           9,216
     BatchNorm2d-223           [-1, 16, 19, 19]              32
            ReLU-224           [-1, 16, 19, 19]               0
    conv_bn_relu-225           [-1, 16, 19, 19]               0
          Conv2d-226           [-1, 64, 19, 19]          20,480
     BatchNorm2d-227           [-1, 64, 19, 19]             128
            ReLU-228           [-1, 64, 19, 19]               0
    conv_bn_relu-229           [-1, 64, 19, 19]               0
          Conv2d-230           [-1, 16, 19, 19]           9,216
     BatchNorm2d-231           [-1, 16, 19, 19]              32
            ReLU-232           [-1, 16, 19, 19]               0
    conv_bn_relu-233           [-1, 16, 19, 19]               0
          Conv2d-234           [-1, 16, 19, 19]           2,304
     BatchNorm2d-235           [-1, 16, 19, 19]              32
            ReLU-236           [-1, 16, 19, 19]               0
    conv_bn_relu-237           [-1, 16, 19, 19]               0
     dense_layer-238          [-1, 352, 19, 19]               0
          Conv2d-239           [-1, 64, 19, 19]          22,528
     BatchNorm2d-240           [-1, 64, 19, 19]             128
            ReLU-241           [-1, 64, 19, 19]               0
    conv_bn_relu-242           [-1, 64, 19, 19]               0
          Conv2d-243           [-1, 16, 19, 19]           9,216
     BatchNorm2d-244           [-1, 16, 19, 19]              32
            ReLU-245           [-1, 16, 19, 19]               0
    conv_bn_relu-246           [-1, 16, 19, 19]               0
          Conv2d-247           [-1, 64, 19, 19]          22,528
     BatchNorm2d-248           [-1, 64, 19, 19]             128
            ReLU-249           [-1, 64, 19, 19]               0
    conv_bn_relu-250           [-1, 64, 19, 19]               0
          Conv2d-251           [-1, 16, 19, 19]           9,216
     BatchNorm2d-252           [-1, 16, 19, 19]              32
            ReLU-253           [-1, 16, 19, 19]               0
    conv_bn_relu-254           [-1, 16, 19, 19]               0
          Conv2d-255           [-1, 16, 19, 19]           2,304
     BatchNorm2d-256           [-1, 16, 19, 19]              32
            ReLU-257           [-1, 16, 19, 19]               0
    conv_bn_relu-258           [-1, 16, 19, 19]               0
     dense_layer-259          [-1, 384, 19, 19]               0
          Conv2d-260           [-1, 64, 19, 19]          24,576
     BatchNorm2d-261           [-1, 64, 19, 19]             128
            ReLU-262           [-1, 64, 19, 19]               0
    conv_bn_relu-263           [-1, 64, 19, 19]               0
          Conv2d-264           [-1, 16, 19, 19]           9,216
     BatchNorm2d-265           [-1, 16, 19, 19]              32
            ReLU-266           [-1, 16, 19, 19]               0
    conv_bn_relu-267           [-1, 16, 19, 19]               0
          Conv2d-268           [-1, 64, 19, 19]          24,576
     BatchNorm2d-269           [-1, 64, 19, 19]             128
            ReLU-270           [-1, 64, 19, 19]               0
    conv_bn_relu-271           [-1, 64, 19, 19]               0
          Conv2d-272           [-1, 16, 19, 19]           9,216
     BatchNorm2d-273           [-1, 16, 19, 19]              32
            ReLU-274           [-1, 16, 19, 19]               0
    conv_bn_relu-275           [-1, 16, 19, 19]               0
          Conv2d-276           [-1, 16, 19, 19]           2,304
     BatchNorm2d-277           [-1, 16, 19, 19]              32
            ReLU-278           [-1, 16, 19, 19]               0
    conv_bn_relu-279           [-1, 16, 19, 19]               0
     dense_layer-280          [-1, 416, 19, 19]               0
          Conv2d-281           [-1, 64, 19, 19]          26,624
     BatchNorm2d-282           [-1, 64, 19, 19]             128
            ReLU-283           [-1, 64, 19, 19]               0
    conv_bn_relu-284           [-1, 64, 19, 19]               0
          Conv2d-285           [-1, 16, 19, 19]           9,216
     BatchNorm2d-286           [-1, 16, 19, 19]              32
            ReLU-287           [-1, 16, 19, 19]               0
    conv_bn_relu-288           [-1, 16, 19, 19]               0
          Conv2d-289           [-1, 64, 19, 19]          26,624
     BatchNorm2d-290           [-1, 64, 19, 19]             128
            ReLU-291           [-1, 64, 19, 19]               0
    conv_bn_relu-292           [-1, 64, 19, 19]               0
          Conv2d-293           [-1, 16, 19, 19]           9,216
     BatchNorm2d-294           [-1, 16, 19, 19]              32
            ReLU-295           [-1, 16, 19, 19]               0
    conv_bn_relu-296           [-1, 16, 19, 19]               0
          Conv2d-297           [-1, 16, 19, 19]           2,304
     BatchNorm2d-298           [-1, 16, 19, 19]              32
            ReLU-299           [-1, 16, 19, 19]               0
    conv_bn_relu-300           [-1, 16, 19, 19]               0
     dense_layer-301          [-1, 448, 19, 19]               0
          Conv2d-302           [-1, 64, 19, 19]          28,672
     BatchNorm2d-303           [-1, 64, 19, 19]             128
            ReLU-304           [-1, 64, 19, 19]               0
    conv_bn_relu-305           [-1, 64, 19, 19]               0
          Conv2d-306           [-1, 16, 19, 19]           9,216
     BatchNorm2d-307           [-1, 16, 19, 19]              32
            ReLU-308           [-1, 16, 19, 19]               0
    conv_bn_relu-309           [-1, 16, 19, 19]               0
          Conv2d-310           [-1, 64, 19, 19]          28,672
     BatchNorm2d-311           [-1, 64, 19, 19]             128
            ReLU-312           [-1, 64, 19, 19]               0
    conv_bn_relu-313           [-1, 64, 19, 19]               0
          Conv2d-314           [-1, 16, 19, 19]           9,216
     BatchNorm2d-315           [-1, 16, 19, 19]              32
            ReLU-316           [-1, 16, 19, 19]               0
    conv_bn_relu-317           [-1, 16, 19, 19]               0
          Conv2d-318           [-1, 16, 19, 19]           2,304
     BatchNorm2d-319           [-1, 16, 19, 19]              32
            ReLU-320           [-1, 16, 19, 19]               0
    conv_bn_relu-321           [-1, 16, 19, 19]               0
     dense_layer-322          [-1, 480, 19, 19]               0
          Conv2d-323           [-1, 64, 19, 19]          30,720
     BatchNorm2d-324           [-1, 64, 19, 19]             128
            ReLU-325           [-1, 64, 19, 19]               0
    conv_bn_relu-326           [-1, 64, 19, 19]               0
          Conv2d-327           [-1, 16, 19, 19]           9,216
     BatchNorm2d-328           [-1, 16, 19, 19]              32
            ReLU-329           [-1, 16, 19, 19]               0
    conv_bn_relu-330           [-1, 16, 19, 19]               0
          Conv2d-331           [-1, 64, 19, 19]          30,720
     BatchNorm2d-332           [-1, 64, 19, 19]             128
            ReLU-333           [-1, 64, 19, 19]               0
    conv_bn_relu-334           [-1, 64, 19, 19]               0
          Conv2d-335           [-1, 16, 19, 19]           9,216
     BatchNorm2d-336           [-1, 16, 19, 19]              32
            ReLU-337           [-1, 16, 19, 19]               0
    conv_bn_relu-338           [-1, 16, 19, 19]               0
          Conv2d-339           [-1, 16, 19, 19]           2,304
     BatchNorm2d-340           [-1, 16, 19, 19]              32
            ReLU-341           [-1, 16, 19, 19]               0
    conv_bn_relu-342           [-1, 16, 19, 19]               0
     dense_layer-343          [-1, 512, 19, 19]               0
          Conv2d-344          [-1, 512, 19, 19]         262,144
     BatchNorm2d-345          [-1, 512, 19, 19]           1,024
            ReLU-346          [-1, 512, 19, 19]               0
    conv_bn_relu-347          [-1, 512, 19, 19]               0
       AvgPool2d-348          [-1, 512, 10, 10]               0
          Conv2d-349           [-1, 64, 10, 10]          32,768
     BatchNorm2d-350           [-1, 64, 10, 10]             128
            ReLU-351           [-1, 64, 10, 10]               0
    conv_bn_relu-352           [-1, 64, 10, 10]               0
          Conv2d-353           [-1, 16, 10, 10]           9,216
     BatchNorm2d-354           [-1, 16, 10, 10]              32
            ReLU-355           [-1, 16, 10, 10]               0
    conv_bn_relu-356           [-1, 16, 10, 10]               0
          Conv2d-357           [-1, 64, 10, 10]          32,768
     BatchNorm2d-358           [-1, 64, 10, 10]             128
            ReLU-359           [-1, 64, 10, 10]               0
    conv_bn_relu-360           [-1, 64, 10, 10]               0
          Conv2d-361           [-1, 16, 10, 10]           9,216
     BatchNorm2d-362           [-1, 16, 10, 10]              32
            ReLU-363           [-1, 16, 10, 10]               0
    conv_bn_relu-364           [-1, 16, 10, 10]               0
          Conv2d-365           [-1, 16, 10, 10]           2,304
     BatchNorm2d-366           [-1, 16, 10, 10]              32
            ReLU-367           [-1, 16, 10, 10]               0
    conv_bn_relu-368           [-1, 16, 10, 10]               0
     dense_layer-369          [-1, 544, 10, 10]               0
          Conv2d-370           [-1, 64, 10, 10]          34,816
     BatchNorm2d-371           [-1, 64, 10, 10]             128
            ReLU-372           [-1, 64, 10, 10]               0
    conv_bn_relu-373           [-1, 64, 10, 10]               0
          Conv2d-374           [-1, 16, 10, 10]           9,216
     BatchNorm2d-375           [-1, 16, 10, 10]              32
            ReLU-376           [-1, 16, 10, 10]               0
    conv_bn_relu-377           [-1, 16, 10, 10]               0
          Conv2d-378           [-1, 64, 10, 10]          34,816
     BatchNorm2d-379           [-1, 64, 10, 10]             128
            ReLU-380           [-1, 64, 10, 10]               0
    conv_bn_relu-381           [-1, 64, 10, 10]               0
          Conv2d-382           [-1, 16, 10, 10]           9,216
     BatchNorm2d-383           [-1, 16, 10, 10]              32
            ReLU-384           [-1, 16, 10, 10]               0
    conv_bn_relu-385           [-1, 16, 10, 10]               0
          Conv2d-386           [-1, 16, 10, 10]           2,304
     BatchNorm2d-387           [-1, 16, 10, 10]              32
            ReLU-388           [-1, 16, 10, 10]               0
    conv_bn_relu-389           [-1, 16, 10, 10]               0
     dense_layer-390          [-1, 576, 10, 10]               0
          Conv2d-391           [-1, 64, 10, 10]          36,864
     BatchNorm2d-392           [-1, 64, 10, 10]             128
            ReLU-393           [-1, 64, 10, 10]               0
    conv_bn_relu-394           [-1, 64, 10, 10]               0
          Conv2d-395           [-1, 16, 10, 10]           9,216
     BatchNorm2d-396           [-1, 16, 10, 10]              32
            ReLU-397           [-1, 16, 10, 10]               0
    conv_bn_relu-398           [-1, 16, 10, 10]               0
          Conv2d-399           [-1, 64, 10, 10]          36,864
     BatchNorm2d-400           [-1, 64, 10, 10]             128
            ReLU-401           [-1, 64, 10, 10]               0
    conv_bn_relu-402           [-1, 64, 10, 10]               0
          Conv2d-403           [-1, 16, 10, 10]           9,216
     BatchNorm2d-404           [-1, 16, 10, 10]              32
            ReLU-405           [-1, 16, 10, 10]               0
    conv_bn_relu-406           [-1, 16, 10, 10]               0
          Conv2d-407           [-1, 16, 10, 10]           2,304
     BatchNorm2d-408           [-1, 16, 10, 10]              32
            ReLU-409           [-1, 16, 10, 10]               0
    conv_bn_relu-410           [-1, 16, 10, 10]               0
     dense_layer-411          [-1, 608, 10, 10]               0
          Conv2d-412           [-1, 64, 10, 10]          38,912
     BatchNorm2d-413           [-1, 64, 10, 10]             128
            ReLU-414           [-1, 64, 10, 10]               0
    conv_bn_relu-415           [-1, 64, 10, 10]               0
          Conv2d-416           [-1, 16, 10, 10]           9,216
     BatchNorm2d-417           [-1, 16, 10, 10]              32
            ReLU-418           [-1, 16, 10, 10]               0
    conv_bn_relu-419           [-1, 16, 10, 10]               0
          Conv2d-420           [-1, 64, 10, 10]          38,912
     BatchNorm2d-421           [-1, 64, 10, 10]             128
            ReLU-422           [-1, 64, 10, 10]               0
    conv_bn_relu-423           [-1, 64, 10, 10]               0
          Conv2d-424           [-1, 16, 10, 10]           9,216
     BatchNorm2d-425           [-1, 16, 10, 10]              32
            ReLU-426           [-1, 16, 10, 10]               0
    conv_bn_relu-427           [-1, 16, 10, 10]               0
          Conv2d-428           [-1, 16, 10, 10]           2,304
     BatchNorm2d-429           [-1, 16, 10, 10]              32
            ReLU-430           [-1, 16, 10, 10]               0
    conv_bn_relu-431           [-1, 16, 10, 10]               0
     dense_layer-432          [-1, 640, 10, 10]               0
          Conv2d-433           [-1, 64, 10, 10]          40,960
     BatchNorm2d-434           [-1, 64, 10, 10]             128
            ReLU-435           [-1, 64, 10, 10]               0
    conv_bn_relu-436           [-1, 64, 10, 10]               0
          Conv2d-437           [-1, 16, 10, 10]           9,216
     BatchNorm2d-438           [-1, 16, 10, 10]              32
            ReLU-439           [-1, 16, 10, 10]               0
    conv_bn_relu-440           [-1, 16, 10, 10]               0
          Conv2d-441           [-1, 64, 10, 10]          40,960
     BatchNorm2d-442           [-1, 64, 10, 10]             128
            ReLU-443           [-1, 64, 10, 10]               0
    conv_bn_relu-444           [-1, 64, 10, 10]               0
          Conv2d-445           [-1, 16, 10, 10]           9,216
     BatchNorm2d-446           [-1, 16, 10, 10]              32
            ReLU-447           [-1, 16, 10, 10]               0
    conv_bn_relu-448           [-1, 16, 10, 10]               0
          Conv2d-449           [-1, 16, 10, 10]           2,304
     BatchNorm2d-450           [-1, 16, 10, 10]              32
            ReLU-451           [-1, 16, 10, 10]               0
    conv_bn_relu-452           [-1, 16, 10, 10]               0
     dense_layer-453          [-1, 672, 10, 10]               0
          Conv2d-454           [-1, 64, 10, 10]          43,008
     BatchNorm2d-455           [-1, 64, 10, 10]             128
            ReLU-456           [-1, 64, 10, 10]               0
    conv_bn_relu-457           [-1, 64, 10, 10]               0
          Conv2d-458           [-1, 16, 10, 10]           9,216
     BatchNorm2d-459           [-1, 16, 10, 10]              32
            ReLU-460           [-1, 16, 10, 10]               0
    conv_bn_relu-461           [-1, 16, 10, 10]               0
          Conv2d-462           [-1, 64, 10, 10]          43,008
     BatchNorm2d-463           [-1, 64, 10, 10]             128
            ReLU-464           [-1, 64, 10, 10]               0
    conv_bn_relu-465           [-1, 64, 10, 10]               0
          Conv2d-466           [-1, 16, 10, 10]           9,216
     BatchNorm2d-467           [-1, 16, 10, 10]              32
            ReLU-468           [-1, 16, 10, 10]               0
    conv_bn_relu-469           [-1, 16, 10, 10]               0
          Conv2d-470           [-1, 16, 10, 10]           2,304
     BatchNorm2d-471           [-1, 16, 10, 10]              32
            ReLU-472           [-1, 16, 10, 10]               0
    conv_bn_relu-473           [-1, 16, 10, 10]               0
     dense_layer-474          [-1, 704, 10, 10]               0
          Conv2d-475          [-1, 704, 10, 10]         495,616
     BatchNorm2d-476          [-1, 704, 10, 10]           1,408
            ReLU-477          [-1, 704, 10, 10]               0
    conv_bn_relu-478          [-1, 704, 10, 10]               0
          Conv2d-479          [-1, 256, 10, 10]         180,224
     BatchNorm2d-480          [-1, 256, 10, 10]             512
            ReLU-481          [-1, 256, 10, 10]               0
    conv_bn_relu-482          [-1, 256, 10, 10]               0
          Conv2d-483            [-1, 256, 5, 5]         589,824
     BatchNorm2d-484            [-1, 256, 5, 5]             512
            ReLU-485            [-1, 256, 5, 5]               0
    conv_bn_relu-486            [-1, 256, 5, 5]               0
          Conv2d-487            [-1, 128, 5, 5]          32,768
     BatchNorm2d-488            [-1, 128, 5, 5]             256
            ReLU-489            [-1, 128, 5, 5]               0
    conv_bn_relu-490            [-1, 128, 5, 5]               0
          Conv2d-491            [-1, 256, 3, 3]         294,912
     BatchNorm2d-492            [-1, 256, 3, 3]             512
            ReLU-493            [-1, 256, 3, 3]               0
    conv_bn_relu-494            [-1, 256, 3, 3]               0
          Conv2d-495            [-1, 128, 3, 3]          32,768
     BatchNorm2d-496            [-1, 128, 3, 3]             256
            ReLU-497            [-1, 128, 3, 3]               0
    conv_bn_relu-498            [-1, 128, 3, 3]               0
          Conv2d-499            [-1, 256, 1, 1]         294,912
     BatchNorm2d-500            [-1, 256, 1, 1]             512
            ReLU-501            [-1, 256, 1, 1]               0
    conv_bn_relu-502            [-1, 256, 1, 1]               0
================================================================
Total params: 3,668,128
Trainable params: 3,668,128
Non-trainable params: 0
----------------------------------------------------------------
Input size (MB): 1.06
Forward/backward pass size (MB): 269.63
Params size (MB): 13.99
Estimated Total Size (MB): 284.68
----------------------------------------------------------------